Model: "model_3"
__________________________________________________________________________________________________
Layer (type)                    Output Shape         Param #     Connected to                     
==================================================================================================
input_3 (InputLayer)            (None, 299, 299, 3)  0                                            
__________________________________________________________________________________________________
conv2d_298 (Conv2D)             (None, 149, 149, 32) 864         input_3[0][0]                    
__________________________________________________________________________________________________
batch_normalization_298 (BatchN (None, 149, 149, 32) 96          conv2d_298[0][0]                 
__________________________________________________________________________________________________
activation_298 (Activation)     (None, 149, 149, 32) 0           batch_normalization_298[0][0]    
__________________________________________________________________________________________________
conv2d_299 (Conv2D)             (None, 147, 147, 32) 9216        activation_298[0][0]             
__________________________________________________________________________________________________
batch_normalization_299 (BatchN (None, 147, 147, 32) 96          conv2d_299[0][0]                 
__________________________________________________________________________________________________
activation_299 (Activation)     (None, 147, 147, 32) 0           batch_normalization_299[0][0]    
__________________________________________________________________________________________________
conv2d_300 (Conv2D)             (None, 147, 147, 64) 18432       activation_299[0][0]             
__________________________________________________________________________________________________
batch_normalization_300 (BatchN (None, 147, 147, 64) 192         conv2d_300[0][0]                 
__________________________________________________________________________________________________
activation_300 (Activation)     (None, 147, 147, 64) 0           batch_normalization_300[0][0]    
__________________________________________________________________________________________________
max_pooling2d_9 (MaxPooling2D)  (None, 73, 73, 64)   0           activation_300[0][0]             
__________________________________________________________________________________________________
conv2d_301 (Conv2D)             (None, 73, 73, 80)   5120        max_pooling2d_9[0][0]            
__________________________________________________________________________________________________
batch_normalization_301 (BatchN (None, 73, 73, 80)   240         conv2d_301[0][0]                 
__________________________________________________________________________________________________
activation_301 (Activation)     (None, 73, 73, 80)   0           batch_normalization_301[0][0]    
__________________________________________________________________________________________________
conv2d_302 (Conv2D)             (None, 71, 71, 192)  138240      activation_301[0][0]             
__________________________________________________________________________________________________
batch_normalization_302 (BatchN (None, 71, 71, 192)  576         conv2d_302[0][0]                 
__________________________________________________________________________________________________
activation_302 (Activation)     (None, 71, 71, 192)  0           batch_normalization_302[0][0]    
__________________________________________________________________________________________________
max_pooling2d_10 (MaxPooling2D) (None, 35, 35, 192)  0           activation_302[0][0]             
__________________________________________________________________________________________________
conv2d_306 (Conv2D)             (None, 35, 35, 64)   12288       max_pooling2d_10[0][0]           
__________________________________________________________________________________________________
batch_normalization_306 (BatchN (None, 35, 35, 64)   192         conv2d_306[0][0]                 
__________________________________________________________________________________________________
activation_306 (Activation)     (None, 35, 35, 64)   0           batch_normalization_306[0][0]    
__________________________________________________________________________________________________
conv2d_304 (Conv2D)             (None, 35, 35, 48)   9216        max_pooling2d_10[0][0]           
__________________________________________________________________________________________________
conv2d_307 (Conv2D)             (None, 35, 35, 96)   55296       activation_306[0][0]             
__________________________________________________________________________________________________
batch_normalization_304 (BatchN (None, 35, 35, 48)   144         conv2d_304[0][0]                 
__________________________________________________________________________________________________
batch_normalization_307 (BatchN (None, 35, 35, 96)   288         conv2d_307[0][0]                 
__________________________________________________________________________________________________
activation_304 (Activation)     (None, 35, 35, 48)   0           batch_normalization_304[0][0]    
__________________________________________________________________________________________________
activation_307 (Activation)     (None, 35, 35, 96)   0           batch_normalization_307[0][0]    
__________________________________________________________________________________________________
average_pooling2d_11 (AveragePo (None, 35, 35, 192)  0           max_pooling2d_10[0][0]           
__________________________________________________________________________________________________
conv2d_303 (Conv2D)             (None, 35, 35, 64)   12288       max_pooling2d_10[0][0]           
__________________________________________________________________________________________________
conv2d_305 (Conv2D)             (None, 35, 35, 64)   76800       activation_304[0][0]             
__________________________________________________________________________________________________
conv2d_308 (Conv2D)             (None, 35, 35, 96)   82944       activation_307[0][0]             
__________________________________________________________________________________________________
conv2d_309 (Conv2D)             (None, 35, 35, 32)   6144        average_pooling2d_11[0][0]       
__________________________________________________________________________________________________
batch_normalization_303 (BatchN (None, 35, 35, 64)   192         conv2d_303[0][0]                 
__________________________________________________________________________________________________
batch_normalization_305 (BatchN (None, 35, 35, 64)   192         conv2d_305[0][0]                 
__________________________________________________________________________________________________
batch_normalization_308 (BatchN (None, 35, 35, 96)   288         conv2d_308[0][0]                 
__________________________________________________________________________________________________
batch_normalization_309 (BatchN (None, 35, 35, 32)   96          conv2d_309[0][0]                 
__________________________________________________________________________________________________
activation_303 (Activation)     (None, 35, 35, 64)   0           batch_normalization_303[0][0]    
__________________________________________________________________________________________________
activation_305 (Activation)     (None, 35, 35, 64)   0           batch_normalization_305[0][0]    
__________________________________________________________________________________________________
activation_308 (Activation)     (None, 35, 35, 96)   0           batch_normalization_308[0][0]    
__________________________________________________________________________________________________
activation_309 (Activation)     (None, 35, 35, 32)   0           batch_normalization_309[0][0]    
__________________________________________________________________________________________________
mixed0 (Concatenate)            (None, 35, 35, 256)  0           activation_303[0][0]             
                                                                 activation_305[0][0]             
                                                                 activation_308[0][0]             
                                                                 activation_309[0][0]             
__________________________________________________________________________________________________
conv2d_313 (Conv2D)             (None, 35, 35, 64)   16384       mixed0[0][0]                     
__________________________________________________________________________________________________
batch_normalization_313 (BatchN (None, 35, 35, 64)   192         conv2d_313[0][0]                 
__________________________________________________________________________________________________
activation_313 (Activation)     (None, 35, 35, 64)   0           batch_normalization_313[0][0]    
__________________________________________________________________________________________________
conv2d_311 (Conv2D)             (None, 35, 35, 48)   12288       mixed0[0][0]                     
__________________________________________________________________________________________________
conv2d_314 (Conv2D)             (None, 35, 35, 96)   55296       activation_313[0][0]             
__________________________________________________________________________________________________
batch_normalization_311 (BatchN (None, 35, 35, 48)   144         conv2d_311[0][0]                 
__________________________________________________________________________________________________
batch_normalization_314 (BatchN (None, 35, 35, 96)   288         conv2d_314[0][0]                 
__________________________________________________________________________________________________
activation_311 (Activation)     (None, 35, 35, 48)   0           batch_normalization_311[0][0]    
__________________________________________________________________________________________________
activation_314 (Activation)     (None, 35, 35, 96)   0           batch_normalization_314[0][0]    
__________________________________________________________________________________________________
average_pooling2d_12 (AveragePo (None, 35, 35, 256)  0           mixed0[0][0]                     
__________________________________________________________________________________________________
conv2d_310 (Conv2D)             (None, 35, 35, 64)   16384       mixed0[0][0]                     
__________________________________________________________________________________________________
conv2d_312 (Conv2D)             (None, 35, 35, 64)   76800       activation_311[0][0]             
__________________________________________________________________________________________________
conv2d_315 (Conv2D)             (None, 35, 35, 96)   82944       activation_314[0][0]             
__________________________________________________________________________________________________
conv2d_316 (Conv2D)             (None, 35, 35, 64)   16384       average_pooling2d_12[0][0]       
__________________________________________________________________________________________________
batch_normalization_310 (BatchN (None, 35, 35, 64)   192         conv2d_310[0][0]                 
__________________________________________________________________________________________________
batch_normalization_312 (BatchN (None, 35, 35, 64)   192         conv2d_312[0][0]                 
__________________________________________________________________________________________________
batch_normalization_315 (BatchN (None, 35, 35, 96)   288         conv2d_315[0][0]                 
__________________________________________________________________________________________________
batch_normalization_316 (BatchN (None, 35, 35, 64)   192         conv2d_316[0][0]                 
__________________________________________________________________________________________________
activation_310 (Activation)     (None, 35, 35, 64)   0           batch_normalization_310[0][0]    
__________________________________________________________________________________________________
activation_312 (Activation)     (None, 35, 35, 64)   0           batch_normalization_312[0][0]    
__________________________________________________________________________________________________
activation_315 (Activation)     (None, 35, 35, 96)   0           batch_normalization_315[0][0]    
__________________________________________________________________________________________________
activation_316 (Activation)     (None, 35, 35, 64)   0           batch_normalization_316[0][0]    
__________________________________________________________________________________________________
mixed1 (Concatenate)            (None, 35, 35, 288)  0           activation_310[0][0]             
                                                                 activation_312[0][0]             
                                                                 activation_315[0][0]             
                                                                 activation_316[0][0]             
__________________________________________________________________________________________________
conv2d_320 (Conv2D)             (None, 35, 35, 64)   18432       mixed1[0][0]                     
__________________________________________________________________________________________________
batch_normalization_320 (BatchN (None, 35, 35, 64)   192         conv2d_320[0][0]                 
__________________________________________________________________________________________________
activation_320 (Activation)     (None, 35, 35, 64)   0           batch_normalization_320[0][0]    
__________________________________________________________________________________________________
conv2d_318 (Conv2D)             (None, 35, 35, 48)   13824       mixed1[0][0]                     
__________________________________________________________________________________________________
conv2d_321 (Conv2D)             (None, 35, 35, 96)   55296       activation_320[0][0]             
__________________________________________________________________________________________________
batch_normalization_318 (BatchN (None, 35, 35, 48)   144         conv2d_318[0][0]                 
__________________________________________________________________________________________________
batch_normalization_321 (BatchN (None, 35, 35, 96)   288         conv2d_321[0][0]                 
__________________________________________________________________________________________________
activation_318 (Activation)     (None, 35, 35, 48)   0           batch_normalization_318[0][0]    
__________________________________________________________________________________________________
activation_321 (Activation)     (None, 35, 35, 96)   0           batch_normalization_321[0][0]    
__________________________________________________________________________________________________
average_pooling2d_13 (AveragePo (None, 35, 35, 288)  0           mixed1[0][0]                     
__________________________________________________________________________________________________
conv2d_317 (Conv2D)             (None, 35, 35, 64)   18432       mixed1[0][0]                     
__________________________________________________________________________________________________
conv2d_319 (Conv2D)             (None, 35, 35, 64)   76800       activation_318[0][0]             
__________________________________________________________________________________________________
conv2d_322 (Conv2D)             (None, 35, 35, 96)   82944       activation_321[0][0]             
__________________________________________________________________________________________________
conv2d_323 (Conv2D)             (None, 35, 35, 64)   18432       average_pooling2d_13[0][0]       
__________________________________________________________________________________________________
batch_normalization_317 (BatchN (None, 35, 35, 64)   192         conv2d_317[0][0]                 
__________________________________________________________________________________________________
batch_normalization_319 (BatchN (None, 35, 35, 64)   192         conv2d_319[0][0]                 
__________________________________________________________________________________________________
batch_normalization_322 (BatchN (None, 35, 35, 96)   288         conv2d_322[0][0]                 
__________________________________________________________________________________________________
batch_normalization_323 (BatchN (None, 35, 35, 64)   192         conv2d_323[0][0]                 
__________________________________________________________________________________________________
activation_317 (Activation)     (None, 35, 35, 64)   0           batch_normalization_317[0][0]    
__________________________________________________________________________________________________
activation_319 (Activation)     (None, 35, 35, 64)   0           batch_normalization_319[0][0]    
__________________________________________________________________________________________________
activation_322 (Activation)     (None, 35, 35, 96)   0           batch_normalization_322[0][0]    
__________________________________________________________________________________________________
activation_323 (Activation)     (None, 35, 35, 64)   0           batch_normalization_323[0][0]    
__________________________________________________________________________________________________
mixed2 (Concatenate)            (None, 35, 35, 288)  0           activation_317[0][0]             
                                                                 activation_319[0][0]             
                                                                 activation_322[0][0]             
                                                                 activation_323[0][0]             
__________________________________________________________________________________________________
conv2d_325 (Conv2D)             (None, 35, 35, 64)   18432       mixed2[0][0]                     
__________________________________________________________________________________________________
batch_normalization_325 (BatchN (None, 35, 35, 64)   192         conv2d_325[0][0]                 
__________________________________________________________________________________________________
activation_325 (Activation)     (None, 35, 35, 64)   0           batch_normalization_325[0][0]    
__________________________________________________________________________________________________
conv2d_326 (Conv2D)             (None, 35, 35, 96)   55296       activation_325[0][0]             
__________________________________________________________________________________________________
batch_normalization_326 (BatchN (None, 35, 35, 96)   288         conv2d_326[0][0]                 
__________________________________________________________________________________________________
activation_326 (Activation)     (None, 35, 35, 96)   0           batch_normalization_326[0][0]    
__________________________________________________________________________________________________
conv2d_324 (Conv2D)             (None, 17, 17, 384)  995328      mixed2[0][0]                     
__________________________________________________________________________________________________
conv2d_327 (Conv2D)             (None, 17, 17, 96)   82944       activation_326[0][0]             
__________________________________________________________________________________________________
batch_normalization_324 (BatchN (None, 17, 17, 384)  1152        conv2d_324[0][0]                 
__________________________________________________________________________________________________
batch_normalization_327 (BatchN (None, 17, 17, 96)   288         conv2d_327[0][0]                 
__________________________________________________________________________________________________
activation_324 (Activation)     (None, 17, 17, 384)  0           batch_normalization_324[0][0]    
__________________________________________________________________________________________________
activation_327 (Activation)     (None, 17, 17, 96)   0           batch_normalization_327[0][0]    
__________________________________________________________________________________________________
max_pooling2d_11 (MaxPooling2D) (None, 17, 17, 288)  0           mixed2[0][0]                     
__________________________________________________________________________________________________
mixed3 (Concatenate)            (None, 17, 17, 768)  0           activation_324[0][0]             
                                                                 activation_327[0][0]             
                                                                 max_pooling2d_11[0][0]           
__________________________________________________________________________________________________
conv2d_332 (Conv2D)             (None, 17, 17, 128)  98304       mixed3[0][0]                     
__________________________________________________________________________________________________
batch_normalization_332 (BatchN (None, 17, 17, 128)  384         conv2d_332[0][0]                 
__________________________________________________________________________________________________
activation_332 (Activation)     (None, 17, 17, 128)  0           batch_normalization_332[0][0]    
__________________________________________________________________________________________________
conv2d_333 (Conv2D)             (None, 17, 17, 128)  114688      activation_332[0][0]             
__________________________________________________________________________________________________
batch_normalization_333 (BatchN (None, 17, 17, 128)  384         conv2d_333[0][0]                 
__________________________________________________________________________________________________
activation_333 (Activation)     (None, 17, 17, 128)  0           batch_normalization_333[0][0]    
__________________________________________________________________________________________________
conv2d_329 (Conv2D)             (None, 17, 17, 128)  98304       mixed3[0][0]                     
__________________________________________________________________________________________________
conv2d_334 (Conv2D)             (None, 17, 17, 128)  114688      activation_333[0][0]             
__________________________________________________________________________________________________
batch_normalization_329 (BatchN (None, 17, 17, 128)  384         conv2d_329[0][0]                 
__________________________________________________________________________________________________
batch_normalization_334 (BatchN (None, 17, 17, 128)  384         conv2d_334[0][0]                 
__________________________________________________________________________________________________
activation_329 (Activation)     (None, 17, 17, 128)  0           batch_normalization_329[0][0]    
__________________________________________________________________________________________________
activation_334 (Activation)     (None, 17, 17, 128)  0           batch_normalization_334[0][0]    
__________________________________________________________________________________________________
conv2d_330 (Conv2D)             (None, 17, 17, 128)  114688      activation_329[0][0]             
__________________________________________________________________________________________________
conv2d_335 (Conv2D)             (None, 17, 17, 128)  114688      activation_334[0][0]             
__________________________________________________________________________________________________
batch_normalization_330 (BatchN (None, 17, 17, 128)  384         conv2d_330[0][0]                 
__________________________________________________________________________________________________
batch_normalization_335 (BatchN (None, 17, 17, 128)  384         conv2d_335[0][0]                 
__________________________________________________________________________________________________
activation_330 (Activation)     (None, 17, 17, 128)  0           batch_normalization_330[0][0]    
__________________________________________________________________________________________________
activation_335 (Activation)     (None, 17, 17, 128)  0           batch_normalization_335[0][0]    
__________________________________________________________________________________________________
average_pooling2d_14 (AveragePo (None, 17, 17, 768)  0           mixed3[0][0]                     
__________________________________________________________________________________________________
conv2d_328 (Conv2D)             (None, 17, 17, 192)  147456      mixed3[0][0]                     
__________________________________________________________________________________________________
conv2d_331 (Conv2D)             (None, 17, 17, 192)  172032      activation_330[0][0]             
__________________________________________________________________________________________________
conv2d_336 (Conv2D)             (None, 17, 17, 192)  172032      activation_335[0][0]             
__________________________________________________________________________________________________
conv2d_337 (Conv2D)             (None, 17, 17, 192)  147456      average_pooling2d_14[0][0]       
__________________________________________________________________________________________________
batch_normalization_328 (BatchN (None, 17, 17, 192)  576         conv2d_328[0][0]                 
__________________________________________________________________________________________________
batch_normalization_331 (BatchN (None, 17, 17, 192)  576         conv2d_331[0][0]                 
__________________________________________________________________________________________________
batch_normalization_336 (BatchN (None, 17, 17, 192)  576         conv2d_336[0][0]                 
__________________________________________________________________________________________________
batch_normalization_337 (BatchN (None, 17, 17, 192)  576         conv2d_337[0][0]                 
__________________________________________________________________________________________________
activation_328 (Activation)     (None, 17, 17, 192)  0           batch_normalization_328[0][0]    
__________________________________________________________________________________________________
activation_331 (Activation)     (None, 17, 17, 192)  0           batch_normalization_331[0][0]    
__________________________________________________________________________________________________
activation_336 (Activation)     (None, 17, 17, 192)  0           batch_normalization_336[0][0]    
__________________________________________________________________________________________________
activation_337 (Activation)     (None, 17, 17, 192)  0           batch_normalization_337[0][0]    
__________________________________________________________________________________________________
mixed4 (Concatenate)            (None, 17, 17, 768)  0           activation_328[0][0]             
                                                                 activation_331[0][0]             
                                                                 activation_336[0][0]             
                                                                 activation_337[0][0]             
__________________________________________________________________________________________________
conv2d_342 (Conv2D)             (None, 17, 17, 160)  122880      mixed4[0][0]                     
__________________________________________________________________________________________________
batch_normalization_342 (BatchN (None, 17, 17, 160)  480         conv2d_342[0][0]                 
__________________________________________________________________________________________________
activation_342 (Activation)     (None, 17, 17, 160)  0           batch_normalization_342[0][0]    
__________________________________________________________________________________________________
conv2d_343 (Conv2D)             (None, 17, 17, 160)  179200      activation_342[0][0]             
__________________________________________________________________________________________________
batch_normalization_343 (BatchN (None, 17, 17, 160)  480         conv2d_343[0][0]                 
__________________________________________________________________________________________________
activation_343 (Activation)     (None, 17, 17, 160)  0           batch_normalization_343[0][0]    
__________________________________________________________________________________________________
conv2d_339 (Conv2D)             (None, 17, 17, 160)  122880      mixed4[0][0]                     
__________________________________________________________________________________________________
conv2d_344 (Conv2D)             (None, 17, 17, 160)  179200      activation_343[0][0]             
__________________________________________________________________________________________________
batch_normalization_339 (BatchN (None, 17, 17, 160)  480         conv2d_339[0][0]                 
__________________________________________________________________________________________________
batch_normalization_344 (BatchN (None, 17, 17, 160)  480         conv2d_344[0][0]                 
__________________________________________________________________________________________________
activation_339 (Activation)     (None, 17, 17, 160)  0           batch_normalization_339[0][0]    
__________________________________________________________________________________________________
activation_344 (Activation)     (None, 17, 17, 160)  0           batch_normalization_344[0][0]    
__________________________________________________________________________________________________
conv2d_340 (Conv2D)             (None, 17, 17, 160)  179200      activation_339[0][0]             
__________________________________________________________________________________________________
conv2d_345 (Conv2D)             (None, 17, 17, 160)  179200      activation_344[0][0]             
__________________________________________________________________________________________________
batch_normalization_340 (BatchN (None, 17, 17, 160)  480         conv2d_340[0][0]                 
__________________________________________________________________________________________________
batch_normalization_345 (BatchN (None, 17, 17, 160)  480         conv2d_345[0][0]                 
__________________________________________________________________________________________________
activation_340 (Activation)     (None, 17, 17, 160)  0           batch_normalization_340[0][0]    
__________________________________________________________________________________________________
activation_345 (Activation)     (None, 17, 17, 160)  0           batch_normalization_345[0][0]    
__________________________________________________________________________________________________
average_pooling2d_15 (AveragePo (None, 17, 17, 768)  0           mixed4[0][0]                     
__________________________________________________________________________________________________
conv2d_338 (Conv2D)             (None, 17, 17, 192)  147456      mixed4[0][0]                     
__________________________________________________________________________________________________
conv2d_341 (Conv2D)             (None, 17, 17, 192)  215040      activation_340[0][0]             
__________________________________________________________________________________________________
conv2d_346 (Conv2D)             (None, 17, 17, 192)  215040      activation_345[0][0]             
__________________________________________________________________________________________________
conv2d_347 (Conv2D)             (None, 17, 17, 192)  147456      average_pooling2d_15[0][0]       
__________________________________________________________________________________________________
batch_normalization_338 (BatchN (None, 17, 17, 192)  576         conv2d_338[0][0]                 
__________________________________________________________________________________________________
batch_normalization_341 (BatchN (None, 17, 17, 192)  576         conv2d_341[0][0]                 
__________________________________________________________________________________________________
batch_normalization_346 (BatchN (None, 17, 17, 192)  576         conv2d_346[0][0]                 
__________________________________________________________________________________________________
batch_normalization_347 (BatchN (None, 17, 17, 192)  576         conv2d_347[0][0]                 
__________________________________________________________________________________________________
activation_338 (Activation)     (None, 17, 17, 192)  0           batch_normalization_338[0][0]    
__________________________________________________________________________________________________
activation_341 (Activation)     (None, 17, 17, 192)  0           batch_normalization_341[0][0]    
__________________________________________________________________________________________________
activation_346 (Activation)     (None, 17, 17, 192)  0           batch_normalization_346[0][0]    
__________________________________________________________________________________________________
activation_347 (Activation)     (None, 17, 17, 192)  0           batch_normalization_347[0][0]    
__________________________________________________________________________________________________
mixed5 (Concatenate)            (None, 17, 17, 768)  0           activation_338[0][0]             
                                                                 activation_341[0][0]             
                                                                 activation_346[0][0]             
                                                                 activation_347[0][0]             
__________________________________________________________________________________________________
conv2d_352 (Conv2D)             (None, 17, 17, 160)  122880      mixed5[0][0]                     
__________________________________________________________________________________________________
batch_normalization_352 (BatchN (None, 17, 17, 160)  480         conv2d_352[0][0]                 
__________________________________________________________________________________________________
activation_352 (Activation)     (None, 17, 17, 160)  0           batch_normalization_352[0][0]    
__________________________________________________________________________________________________
conv2d_353 (Conv2D)             (None, 17, 17, 160)  179200      activation_352[0][0]             
__________________________________________________________________________________________________
batch_normalization_353 (BatchN (None, 17, 17, 160)  480         conv2d_353[0][0]                 
__________________________________________________________________________________________________
activation_353 (Activation)     (None, 17, 17, 160)  0           batch_normalization_353[0][0]    
__________________________________________________________________________________________________
conv2d_349 (Conv2D)             (None, 17, 17, 160)  122880      mixed5[0][0]                     
__________________________________________________________________________________________________
conv2d_354 (Conv2D)             (None, 17, 17, 160)  179200      activation_353[0][0]             
__________________________________________________________________________________________________
batch_normalization_349 (BatchN (None, 17, 17, 160)  480         conv2d_349[0][0]                 
__________________________________________________________________________________________________
batch_normalization_354 (BatchN (None, 17, 17, 160)  480         conv2d_354[0][0]                 
__________________________________________________________________________________________________
activation_349 (Activation)     (None, 17, 17, 160)  0           batch_normalization_349[0][0]    
__________________________________________________________________________________________________
activation_354 (Activation)     (None, 17, 17, 160)  0           batch_normalization_354[0][0]    
__________________________________________________________________________________________________
conv2d_350 (Conv2D)             (None, 17, 17, 160)  179200      activation_349[0][0]             
__________________________________________________________________________________________________
conv2d_355 (Conv2D)             (None, 17, 17, 160)  179200      activation_354[0][0]             
__________________________________________________________________________________________________
batch_normalization_350 (BatchN (None, 17, 17, 160)  480         conv2d_350[0][0]                 
__________________________________________________________________________________________________
batch_normalization_355 (BatchN (None, 17, 17, 160)  480         conv2d_355[0][0]                 
__________________________________________________________________________________________________
activation_350 (Activation)     (None, 17, 17, 160)  0           batch_normalization_350[0][0]    
__________________________________________________________________________________________________
activation_355 (Activation)     (None, 17, 17, 160)  0           batch_normalization_355[0][0]    
__________________________________________________________________________________________________
average_pooling2d_16 (AveragePo (None, 17, 17, 768)  0           mixed5[0][0]                     
__________________________________________________________________________________________________
conv2d_348 (Conv2D)             (None, 17, 17, 192)  147456      mixed5[0][0]                     
__________________________________________________________________________________________________
conv2d_351 (Conv2D)             (None, 17, 17, 192)  215040      activation_350[0][0]             
__________________________________________________________________________________________________
conv2d_356 (Conv2D)             (None, 17, 17, 192)  215040      activation_355[0][0]             
__________________________________________________________________________________________________
conv2d_357 (Conv2D)             (None, 17, 17, 192)  147456      average_pooling2d_16[0][0]       
__________________________________________________________________________________________________
batch_normalization_348 (BatchN (None, 17, 17, 192)  576         conv2d_348[0][0]                 
__________________________________________________________________________________________________
batch_normalization_351 (BatchN (None, 17, 17, 192)  576         conv2d_351[0][0]                 
__________________________________________________________________________________________________
batch_normalization_356 (BatchN (None, 17, 17, 192)  576         conv2d_356[0][0]                 
__________________________________________________________________________________________________
batch_normalization_357 (BatchN (None, 17, 17, 192)  576         conv2d_357[0][0]                 
__________________________________________________________________________________________________
activation_348 (Activation)     (None, 17, 17, 192)  0           batch_normalization_348[0][0]    
__________________________________________________________________________________________________
activation_351 (Activation)     (None, 17, 17, 192)  0           batch_normalization_351[0][0]    
__________________________________________________________________________________________________
activation_356 (Activation)     (None, 17, 17, 192)  0           batch_normalization_356[0][0]    
__________________________________________________________________________________________________
activation_357 (Activation)     (None, 17, 17, 192)  0           batch_normalization_357[0][0]    
__________________________________________________________________________________________________
mixed6 (Concatenate)            (None, 17, 17, 768)  0           activation_348[0][0]             
                                                                 activation_351[0][0]             
                                                                 activation_356[0][0]             
                                                                 activation_357[0][0]             
__________________________________________________________________________________________________
conv2d_362 (Conv2D)             (None, 17, 17, 192)  147456      mixed6[0][0]                     
__________________________________________________________________________________________________
batch_normalization_362 (BatchN (None, 17, 17, 192)  576         conv2d_362[0][0]                 
__________________________________________________________________________________________________
activation_362 (Activation)     (None, 17, 17, 192)  0           batch_normalization_362[0][0]    
__________________________________________________________________________________________________
conv2d_363 (Conv2D)             (None, 17, 17, 192)  258048      activation_362[0][0]             
__________________________________________________________________________________________________
batch_normalization_363 (BatchN (None, 17, 17, 192)  576         conv2d_363[0][0]                 
__________________________________________________________________________________________________
activation_363 (Activation)     (None, 17, 17, 192)  0           batch_normalization_363[0][0]    
__________________________________________________________________________________________________
conv2d_359 (Conv2D)             (None, 17, 17, 192)  147456      mixed6[0][0]                     
__________________________________________________________________________________________________
conv2d_364 (Conv2D)             (None, 17, 17, 192)  258048      activation_363[0][0]             
__________________________________________________________________________________________________
batch_normalization_359 (BatchN (None, 17, 17, 192)  576         conv2d_359[0][0]                 
__________________________________________________________________________________________________
batch_normalization_364 (BatchN (None, 17, 17, 192)  576         conv2d_364[0][0]                 
__________________________________________________________________________________________________
activation_359 (Activation)     (None, 17, 17, 192)  0           batch_normalization_359[0][0]    
__________________________________________________________________________________________________
activation_364 (Activation)     (None, 17, 17, 192)  0           batch_normalization_364[0][0]    
__________________________________________________________________________________________________
conv2d_360 (Conv2D)             (None, 17, 17, 192)  258048      activation_359[0][0]             
__________________________________________________________________________________________________
conv2d_365 (Conv2D)             (None, 17, 17, 192)  258048      activation_364[0][0]             
__________________________________________________________________________________________________
batch_normalization_360 (BatchN (None, 17, 17, 192)  576         conv2d_360[0][0]                 
__________________________________________________________________________________________________
batch_normalization_365 (BatchN (None, 17, 17, 192)  576         conv2d_365[0][0]                 
__________________________________________________________________________________________________
activation_360 (Activation)     (None, 17, 17, 192)  0           batch_normalization_360[0][0]    
__________________________________________________________________________________________________
activation_365 (Activation)     (None, 17, 17, 192)  0           batch_normalization_365[0][0]    
__________________________________________________________________________________________________
average_pooling2d_17 (AveragePo (None, 17, 17, 768)  0           mixed6[0][0]                     
__________________________________________________________________________________________________
conv2d_358 (Conv2D)             (None, 17, 17, 192)  147456      mixed6[0][0]                     
__________________________________________________________________________________________________
conv2d_361 (Conv2D)             (None, 17, 17, 192)  258048      activation_360[0][0]             
__________________________________________________________________________________________________
conv2d_366 (Conv2D)             (None, 17, 17, 192)  258048      activation_365[0][0]             
__________________________________________________________________________________________________
conv2d_367 (Conv2D)             (None, 17, 17, 192)  147456      average_pooling2d_17[0][0]       
__________________________________________________________________________________________________
batch_normalization_358 (BatchN (None, 17, 17, 192)  576         conv2d_358[0][0]                 
__________________________________________________________________________________________________
batch_normalization_361 (BatchN (None, 17, 17, 192)  576         conv2d_361[0][0]                 
__________________________________________________________________________________________________
batch_normalization_366 (BatchN (None, 17, 17, 192)  576         conv2d_366[0][0]                 
__________________________________________________________________________________________________
batch_normalization_367 (BatchN (None, 17, 17, 192)  576         conv2d_367[0][0]                 
__________________________________________________________________________________________________
activation_358 (Activation)     (None, 17, 17, 192)  0           batch_normalization_358[0][0]    
__________________________________________________________________________________________________
activation_361 (Activation)     (None, 17, 17, 192)  0           batch_normalization_361[0][0]    
__________________________________________________________________________________________________
activation_366 (Activation)     (None, 17, 17, 192)  0           batch_normalization_366[0][0]    
__________________________________________________________________________________________________
activation_367 (Activation)     (None, 17, 17, 192)  0           batch_normalization_367[0][0]    
__________________________________________________________________________________________________
mixed7 (Concatenate)            (None, 17, 17, 768)  0           activation_358[0][0]             
                                                                 activation_361[0][0]             
                                                                 activation_366[0][0]             
                                                                 activation_367[0][0]             
__________________________________________________________________________________________________
conv2d_370 (Conv2D)             (None, 17, 17, 192)  147456      mixed7[0][0]                     
__________________________________________________________________________________________________
batch_normalization_370 (BatchN (None, 17, 17, 192)  576         conv2d_370[0][0]                 
__________________________________________________________________________________________________
activation_370 (Activation)     (None, 17, 17, 192)  0           batch_normalization_370[0][0]    
__________________________________________________________________________________________________
conv2d_371 (Conv2D)             (None, 17, 17, 192)  258048      activation_370[0][0]             
__________________________________________________________________________________________________
batch_normalization_371 (BatchN (None, 17, 17, 192)  576         conv2d_371[0][0]                 
__________________________________________________________________________________________________
activation_371 (Activation)     (None, 17, 17, 192)  0           batch_normalization_371[0][0]    
__________________________________________________________________________________________________
conv2d_368 (Conv2D)             (None, 17, 17, 192)  147456      mixed7[0][0]                     
__________________________________________________________________________________________________
conv2d_372 (Conv2D)             (None, 17, 17, 192)  258048      activation_371[0][0]             
__________________________________________________________________________________________________
batch_normalization_368 (BatchN (None, 17, 17, 192)  576         conv2d_368[0][0]                 
__________________________________________________________________________________________________
batch_normalization_372 (BatchN (None, 17, 17, 192)  576         conv2d_372[0][0]                 
__________________________________________________________________________________________________
activation_368 (Activation)     (None, 17, 17, 192)  0           batch_normalization_368[0][0]    
__________________________________________________________________________________________________
activation_372 (Activation)     (None, 17, 17, 192)  0           batch_normalization_372[0][0]    
__________________________________________________________________________________________________
conv2d_369 (Conv2D)             (None, 8, 8, 320)    552960      activation_368[0][0]             
__________________________________________________________________________________________________
conv2d_373 (Conv2D)             (None, 8, 8, 192)    331776      activation_372[0][0]             
__________________________________________________________________________________________________
batch_normalization_369 (BatchN (None, 8, 8, 320)    960         conv2d_369[0][0]                 
__________________________________________________________________________________________________
batch_normalization_373 (BatchN (None, 8, 8, 192)    576         conv2d_373[0][0]                 
__________________________________________________________________________________________________
activation_369 (Activation)     (None, 8, 8, 320)    0           batch_normalization_369[0][0]    
__________________________________________________________________________________________________
activation_373 (Activation)     (None, 8, 8, 192)    0           batch_normalization_373[0][0]    
__________________________________________________________________________________________________
max_pooling2d_12 (MaxPooling2D) (None, 8, 8, 768)    0           mixed7[0][0]                     
__________________________________________________________________________________________________
mixed8 (Concatenate)            (None, 8, 8, 1280)   0           activation_369[0][0]             
                                                                 activation_373[0][0]             
                                                                 max_pooling2d_12[0][0]           
__________________________________________________________________________________________________
conv2d_378 (Conv2D)             (None, 8, 8, 448)    573440      mixed8[0][0]                     
__________________________________________________________________________________________________
batch_normalization_378 (BatchN (None, 8, 8, 448)    1344        conv2d_378[0][0]                 
__________________________________________________________________________________________________
activation_378 (Activation)     (None, 8, 8, 448)    0           batch_normalization_378[0][0]    
__________________________________________________________________________________________________
conv2d_375 (Conv2D)             (None, 8, 8, 384)    491520      mixed8[0][0]                     
__________________________________________________________________________________________________
conv2d_379 (Conv2D)             (None, 8, 8, 384)    1548288     activation_378[0][0]             
__________________________________________________________________________________________________
batch_normalization_375 (BatchN (None, 8, 8, 384)    1152        conv2d_375[0][0]                 
__________________________________________________________________________________________________
batch_normalization_379 (BatchN (None, 8, 8, 384)    1152        conv2d_379[0][0]                 
__________________________________________________________________________________________________
activation_375 (Activation)     (None, 8, 8, 384)    0           batch_normalization_375[0][0]    
__________________________________________________________________________________________________
activation_379 (Activation)     (None, 8, 8, 384)    0           batch_normalization_379[0][0]    
__________________________________________________________________________________________________
conv2d_376 (Conv2D)             (None, 8, 8, 384)    442368      activation_375[0][0]             
__________________________________________________________________________________________________
conv2d_377 (Conv2D)             (None, 8, 8, 384)    442368      activation_375[0][0]             
__________________________________________________________________________________________________
conv2d_380 (Conv2D)             (None, 8, 8, 384)    442368      activation_379[0][0]             
__________________________________________________________________________________________________
conv2d_381 (Conv2D)             (None, 8, 8, 384)    442368      activation_379[0][0]             
__________________________________________________________________________________________________
average_pooling2d_18 (AveragePo (None, 8, 8, 1280)   0           mixed8[0][0]                     
__________________________________________________________________________________________________
conv2d_374 (Conv2D)             (None, 8, 8, 320)    409600      mixed8[0][0]                     
__________________________________________________________________________________________________
batch_normalization_376 (BatchN (None, 8, 8, 384)    1152        conv2d_376[0][0]                 
__________________________________________________________________________________________________
batch_normalization_377 (BatchN (None, 8, 8, 384)    1152        conv2d_377[0][0]                 
__________________________________________________________________________________________________
batch_normalization_380 (BatchN (None, 8, 8, 384)    1152        conv2d_380[0][0]                 
__________________________________________________________________________________________________
batch_normalization_381 (BatchN (None, 8, 8, 384)    1152        conv2d_381[0][0]                 
__________________________________________________________________________________________________
conv2d_382 (Conv2D)             (None, 8, 8, 192)    245760      average_pooling2d_18[0][0]       
__________________________________________________________________________________________________
batch_normalization_374 (BatchN (None, 8, 8, 320)    960         conv2d_374[0][0]                 
__________________________________________________________________________________________________
activation_376 (Activation)     (None, 8, 8, 384)    0           batch_normalization_376[0][0]    
__________________________________________________________________________________________________
activation_377 (Activation)     (None, 8, 8, 384)    0           batch_normalization_377[0][0]    
__________________________________________________________________________________________________
activation_380 (Activation)     (None, 8, 8, 384)    0           batch_normalization_380[0][0]    
__________________________________________________________________________________________________
activation_381 (Activation)     (None, 8, 8, 384)    0           batch_normalization_381[0][0]    
__________________________________________________________________________________________________
batch_normalization_382 (BatchN (None, 8, 8, 192)    576         conv2d_382[0][0]                 
__________________________________________________________________________________________________
activation_374 (Activation)     (None, 8, 8, 320)    0           batch_normalization_374[0][0]    
__________________________________________________________________________________________________
mixed9_0 (Concatenate)          (None, 8, 8, 768)    0           activation_376[0][0]             
                                                                 activation_377[0][0]             
__________________________________________________________________________________________________
concatenate_5 (Concatenate)     (None, 8, 8, 768)    0           activation_380[0][0]             
                                                                 activation_381[0][0]             
__________________________________________________________________________________________________
activation_382 (Activation)     (None, 8, 8, 192)    0           batch_normalization_382[0][0]    
__________________________________________________________________________________________________
mixed9 (Concatenate)            (None, 8, 8, 2048)   0           activation_374[0][0]             
                                                                 mixed9_0[0][0]                   
                                                                 concatenate_5[0][0]              
                                                                 activation_382[0][0]             
__________________________________________________________________________________________________
conv2d_387 (Conv2D)             (None, 8, 8, 448)    917504      mixed9[0][0]                     
__________________________________________________________________________________________________
batch_normalization_387 (BatchN (None, 8, 8, 448)    1344        conv2d_387[0][0]                 
__________________________________________________________________________________________________
activation_387 (Activation)     (None, 8, 8, 448)    0           batch_normalization_387[0][0]    
__________________________________________________________________________________________________
conv2d_384 (Conv2D)             (None, 8, 8, 384)    786432      mixed9[0][0]                     
__________________________________________________________________________________________________
conv2d_388 (Conv2D)             (None, 8, 8, 384)    1548288     activation_387[0][0]             
__________________________________________________________________________________________________
batch_normalization_384 (BatchN (None, 8, 8, 384)    1152        conv2d_384[0][0]                 
__________________________________________________________________________________________________
batch_normalization_388 (BatchN (None, 8, 8, 384)    1152        conv2d_388[0][0]                 
__________________________________________________________________________________________________
activation_384 (Activation)     (None, 8, 8, 384)    0           batch_normalization_384[0][0]    
__________________________________________________________________________________________________
activation_388 (Activation)     (None, 8, 8, 384)    0           batch_normalization_388[0][0]    
__________________________________________________________________________________________________
conv2d_385 (Conv2D)             (None, 8, 8, 384)    442368      activation_384[0][0]             
__________________________________________________________________________________________________
conv2d_386 (Conv2D)             (None, 8, 8, 384)    442368      activation_384[0][0]             
__________________________________________________________________________________________________
conv2d_389 (Conv2D)             (None, 8, 8, 384)    442368      activation_388[0][0]             
__________________________________________________________________________________________________
conv2d_390 (Conv2D)             (None, 8, 8, 384)    442368      activation_388[0][0]             
__________________________________________________________________________________________________
average_pooling2d_19 (AveragePo (None, 8, 8, 2048)   0           mixed9[0][0]                     
__________________________________________________________________________________________________
conv2d_383 (Conv2D)             (None, 8, 8, 320)    655360      mixed9[0][0]                     
__________________________________________________________________________________________________
batch_normalization_385 (BatchN (None, 8, 8, 384)    1152        conv2d_385[0][0]                 
__________________________________________________________________________________________________
batch_normalization_386 (BatchN (None, 8, 8, 384)    1152        conv2d_386[0][0]                 
__________________________________________________________________________________________________
batch_normalization_389 (BatchN (None, 8, 8, 384)    1152        conv2d_389[0][0]                 
__________________________________________________________________________________________________
batch_normalization_390 (BatchN (None, 8, 8, 384)    1152        conv2d_390[0][0]                 
__________________________________________________________________________________________________
conv2d_391 (Conv2D)             (None, 8, 8, 192)    393216      average_pooling2d_19[0][0]       
__________________________________________________________________________________________________
batch_normalization_383 (BatchN (None, 8, 8, 320)    960         conv2d_383[0][0]                 
__________________________________________________________________________________________________
activation_385 (Activation)     (None, 8, 8, 384)    0           batch_normalization_385[0][0]    
__________________________________________________________________________________________________
activation_386 (Activation)     (None, 8, 8, 384)    0           batch_normalization_386[0][0]    
__________________________________________________________________________________________________
activation_389 (Activation)     (None, 8, 8, 384)    0           batch_normalization_389[0][0]    
__________________________________________________________________________________________________
activation_390 (Activation)     (None, 8, 8, 384)    0           batch_normalization_390[0][0]    
__________________________________________________________________________________________________
batch_normalization_391 (BatchN (None, 8, 8, 192)    576         conv2d_391[0][0]                 
__________________________________________________________________________________________________
activation_383 (Activation)     (None, 8, 8, 320)    0           batch_normalization_383[0][0]    
__________________________________________________________________________________________________
mixed9_1 (Concatenate)          (None, 8, 8, 768)    0           activation_385[0][0]             
                                                                 activation_386[0][0]             
__________________________________________________________________________________________________
concatenate_6 (Concatenate)     (None, 8, 8, 768)    0           activation_389[0][0]             
                                                                 activation_390[0][0]             
__________________________________________________________________________________________________
activation_391 (Activation)     (None, 8, 8, 192)    0           batch_normalization_391[0][0]    
__________________________________________________________________________________________________
mixed10 (Concatenate)           (None, 8, 8, 2048)   0           activation_383[0][0]             
                                                                 mixed9_1[0][0]                   
                                                                 concatenate_6[0][0]              
                                                                 activation_391[0][0]             
__________________________________________________________________________________________________
global_average_pooling2d_3 (Glo (None, 2048)         0           mixed10[0][0]                    
__________________________________________________________________________________________________
dropout_5 (Dropout)             (None, 2048)         0           global_average_pooling2d_3[0][0] 
__________________________________________________________________________________________________
dense_5 (Dense)                 (None, 100)          204900      dropout_5[0][0]                  
__________________________________________________________________________________________________
dropout_6 (Dropout)             (None, 100)          0           dense_5[0][0]                    
__________________________________________________________________________________________________
dense_6 (Dense)                 (None, 1)            101         dropout_6[0][0]                  
__________________________________________________________________________________________________
any_predictions (Activation)    (None, 1)            0           dense_6[0][0]                    
__________________________________________________________________________________________________
concatenate_7 (Concatenate)     (None, 101)          0           any_predictions[0][0]            
                                                                 dropout_6[0][0]                  
__________________________________________________________________________________________________
subtype_pred (Dense)            (None, 5)            510         concatenate_7[0][0]              
==================================================================================================
Total params: 22,008,295
Trainable params: 21,973,863
Non-trainable params: 34,432
__________________________________________________________________________________________________
