Model: "model_2"
__________________________________________________________________________________________________
Layer (type)                    Output Shape         Param #     Connected to                     
==================================================================================================
input_2 (InputLayer)            (None, 299, 299, 3)  0                                            
__________________________________________________________________________________________________
conv2d_204 (Conv2D)             (None, 149, 149, 32) 864         input_2[0][0]                    
__________________________________________________________________________________________________
batch_normalization_204 (BatchN (None, 149, 149, 32) 96          conv2d_204[0][0]                 
__________________________________________________________________________________________________
activation_204 (Activation)     (None, 149, 149, 32) 0           batch_normalization_204[0][0]    
__________________________________________________________________________________________________
conv2d_205 (Conv2D)             (None, 147, 147, 32) 9216        activation_204[0][0]             
__________________________________________________________________________________________________
batch_normalization_205 (BatchN (None, 147, 147, 32) 96          conv2d_205[0][0]                 
__________________________________________________________________________________________________
activation_205 (Activation)     (None, 147, 147, 32) 0           batch_normalization_205[0][0]    
__________________________________________________________________________________________________
conv2d_206 (Conv2D)             (None, 147, 147, 64) 18432       activation_205[0][0]             
__________________________________________________________________________________________________
batch_normalization_206 (BatchN (None, 147, 147, 64) 192         conv2d_206[0][0]                 
__________________________________________________________________________________________________
activation_206 (Activation)     (None, 147, 147, 64) 0           batch_normalization_206[0][0]    
__________________________________________________________________________________________________
max_pooling2d_5 (MaxPooling2D)  (None, 73, 73, 64)   0           activation_206[0][0]             
__________________________________________________________________________________________________
conv2d_207 (Conv2D)             (None, 73, 73, 80)   5120        max_pooling2d_5[0][0]            
__________________________________________________________________________________________________
batch_normalization_207 (BatchN (None, 73, 73, 80)   240         conv2d_207[0][0]                 
__________________________________________________________________________________________________
activation_207 (Activation)     (None, 73, 73, 80)   0           batch_normalization_207[0][0]    
__________________________________________________________________________________________________
conv2d_208 (Conv2D)             (None, 71, 71, 192)  138240      activation_207[0][0]             
__________________________________________________________________________________________________
batch_normalization_208 (BatchN (None, 71, 71, 192)  576         conv2d_208[0][0]                 
__________________________________________________________________________________________________
activation_208 (Activation)     (None, 71, 71, 192)  0           batch_normalization_208[0][0]    
__________________________________________________________________________________________________
max_pooling2d_6 (MaxPooling2D)  (None, 35, 35, 192)  0           activation_208[0][0]             
__________________________________________________________________________________________________
conv2d_212 (Conv2D)             (None, 35, 35, 64)   12288       max_pooling2d_6[0][0]            
__________________________________________________________________________________________________
batch_normalization_212 (BatchN (None, 35, 35, 64)   192         conv2d_212[0][0]                 
__________________________________________________________________________________________________
activation_212 (Activation)     (None, 35, 35, 64)   0           batch_normalization_212[0][0]    
__________________________________________________________________________________________________
conv2d_210 (Conv2D)             (None, 35, 35, 48)   9216        max_pooling2d_6[0][0]            
__________________________________________________________________________________________________
conv2d_213 (Conv2D)             (None, 35, 35, 96)   55296       activation_212[0][0]             
__________________________________________________________________________________________________
batch_normalization_210 (BatchN (None, 35, 35, 48)   144         conv2d_210[0][0]                 
__________________________________________________________________________________________________
batch_normalization_213 (BatchN (None, 35, 35, 96)   288         conv2d_213[0][0]                 
__________________________________________________________________________________________________
activation_210 (Activation)     (None, 35, 35, 48)   0           batch_normalization_210[0][0]    
__________________________________________________________________________________________________
activation_213 (Activation)     (None, 35, 35, 96)   0           batch_normalization_213[0][0]    
__________________________________________________________________________________________________
average_pooling2d_2 (AveragePoo (None, 35, 35, 192)  0           max_pooling2d_6[0][0]            
__________________________________________________________________________________________________
conv2d_209 (Conv2D)             (None, 35, 35, 64)   12288       max_pooling2d_6[0][0]            
__________________________________________________________________________________________________
conv2d_211 (Conv2D)             (None, 35, 35, 64)   76800       activation_210[0][0]             
__________________________________________________________________________________________________
conv2d_214 (Conv2D)             (None, 35, 35, 96)   82944       activation_213[0][0]             
__________________________________________________________________________________________________
conv2d_215 (Conv2D)             (None, 35, 35, 32)   6144        average_pooling2d_2[0][0]        
__________________________________________________________________________________________________
batch_normalization_209 (BatchN (None, 35, 35, 64)   192         conv2d_209[0][0]                 
__________________________________________________________________________________________________
batch_normalization_211 (BatchN (None, 35, 35, 64)   192         conv2d_211[0][0]                 
__________________________________________________________________________________________________
batch_normalization_214 (BatchN (None, 35, 35, 96)   288         conv2d_214[0][0]                 
__________________________________________________________________________________________________
batch_normalization_215 (BatchN (None, 35, 35, 32)   96          conv2d_215[0][0]                 
__________________________________________________________________________________________________
activation_209 (Activation)     (None, 35, 35, 64)   0           batch_normalization_209[0][0]    
__________________________________________________________________________________________________
activation_211 (Activation)     (None, 35, 35, 64)   0           batch_normalization_211[0][0]    
__________________________________________________________________________________________________
activation_214 (Activation)     (None, 35, 35, 96)   0           batch_normalization_214[0][0]    
__________________________________________________________________________________________________
activation_215 (Activation)     (None, 35, 35, 32)   0           batch_normalization_215[0][0]    
__________________________________________________________________________________________________
mixed0 (Concatenate)            (None, 35, 35, 256)  0           activation_209[0][0]             
                                                                 activation_211[0][0]             
                                                                 activation_214[0][0]             
                                                                 activation_215[0][0]             
__________________________________________________________________________________________________
conv2d_219 (Conv2D)             (None, 35, 35, 64)   16384       mixed0[0][0]                     
__________________________________________________________________________________________________
batch_normalization_219 (BatchN (None, 35, 35, 64)   192         conv2d_219[0][0]                 
__________________________________________________________________________________________________
activation_219 (Activation)     (None, 35, 35, 64)   0           batch_normalization_219[0][0]    
__________________________________________________________________________________________________
conv2d_217 (Conv2D)             (None, 35, 35, 48)   12288       mixed0[0][0]                     
__________________________________________________________________________________________________
conv2d_220 (Conv2D)             (None, 35, 35, 96)   55296       activation_219[0][0]             
__________________________________________________________________________________________________
batch_normalization_217 (BatchN (None, 35, 35, 48)   144         conv2d_217[0][0]                 
__________________________________________________________________________________________________
batch_normalization_220 (BatchN (None, 35, 35, 96)   288         conv2d_220[0][0]                 
__________________________________________________________________________________________________
activation_217 (Activation)     (None, 35, 35, 48)   0           batch_normalization_217[0][0]    
__________________________________________________________________________________________________
activation_220 (Activation)     (None, 35, 35, 96)   0           batch_normalization_220[0][0]    
__________________________________________________________________________________________________
average_pooling2d_3 (AveragePoo (None, 35, 35, 256)  0           mixed0[0][0]                     
__________________________________________________________________________________________________
conv2d_216 (Conv2D)             (None, 35, 35, 64)   16384       mixed0[0][0]                     
__________________________________________________________________________________________________
conv2d_218 (Conv2D)             (None, 35, 35, 64)   76800       activation_217[0][0]             
__________________________________________________________________________________________________
conv2d_221 (Conv2D)             (None, 35, 35, 96)   82944       activation_220[0][0]             
__________________________________________________________________________________________________
conv2d_222 (Conv2D)             (None, 35, 35, 64)   16384       average_pooling2d_3[0][0]        
__________________________________________________________________________________________________
batch_normalization_216 (BatchN (None, 35, 35, 64)   192         conv2d_216[0][0]                 
__________________________________________________________________________________________________
batch_normalization_218 (BatchN (None, 35, 35, 64)   192         conv2d_218[0][0]                 
__________________________________________________________________________________________________
batch_normalization_221 (BatchN (None, 35, 35, 96)   288         conv2d_221[0][0]                 
__________________________________________________________________________________________________
batch_normalization_222 (BatchN (None, 35, 35, 64)   192         conv2d_222[0][0]                 
__________________________________________________________________________________________________
activation_216 (Activation)     (None, 35, 35, 64)   0           batch_normalization_216[0][0]    
__________________________________________________________________________________________________
activation_218 (Activation)     (None, 35, 35, 64)   0           batch_normalization_218[0][0]    
__________________________________________________________________________________________________
activation_221 (Activation)     (None, 35, 35, 96)   0           batch_normalization_221[0][0]    
__________________________________________________________________________________________________
activation_222 (Activation)     (None, 35, 35, 64)   0           batch_normalization_222[0][0]    
__________________________________________________________________________________________________
mixed1 (Concatenate)            (None, 35, 35, 288)  0           activation_216[0][0]             
                                                                 activation_218[0][0]             
                                                                 activation_221[0][0]             
                                                                 activation_222[0][0]             
__________________________________________________________________________________________________
conv2d_226 (Conv2D)             (None, 35, 35, 64)   18432       mixed1[0][0]                     
__________________________________________________________________________________________________
batch_normalization_226 (BatchN (None, 35, 35, 64)   192         conv2d_226[0][0]                 
__________________________________________________________________________________________________
activation_226 (Activation)     (None, 35, 35, 64)   0           batch_normalization_226[0][0]    
__________________________________________________________________________________________________
conv2d_224 (Conv2D)             (None, 35, 35, 48)   13824       mixed1[0][0]                     
__________________________________________________________________________________________________
conv2d_227 (Conv2D)             (None, 35, 35, 96)   55296       activation_226[0][0]             
__________________________________________________________________________________________________
batch_normalization_224 (BatchN (None, 35, 35, 48)   144         conv2d_224[0][0]                 
__________________________________________________________________________________________________
batch_normalization_227 (BatchN (None, 35, 35, 96)   288         conv2d_227[0][0]                 
__________________________________________________________________________________________________
activation_224 (Activation)     (None, 35, 35, 48)   0           batch_normalization_224[0][0]    
__________________________________________________________________________________________________
activation_227 (Activation)     (None, 35, 35, 96)   0           batch_normalization_227[0][0]    
__________________________________________________________________________________________________
average_pooling2d_4 (AveragePoo (None, 35, 35, 288)  0           mixed1[0][0]                     
__________________________________________________________________________________________________
conv2d_223 (Conv2D)             (None, 35, 35, 64)   18432       mixed1[0][0]                     
__________________________________________________________________________________________________
conv2d_225 (Conv2D)             (None, 35, 35, 64)   76800       activation_224[0][0]             
__________________________________________________________________________________________________
conv2d_228 (Conv2D)             (None, 35, 35, 96)   82944       activation_227[0][0]             
__________________________________________________________________________________________________
conv2d_229 (Conv2D)             (None, 35, 35, 64)   18432       average_pooling2d_4[0][0]        
__________________________________________________________________________________________________
batch_normalization_223 (BatchN (None, 35, 35, 64)   192         conv2d_223[0][0]                 
__________________________________________________________________________________________________
batch_normalization_225 (BatchN (None, 35, 35, 64)   192         conv2d_225[0][0]                 
__________________________________________________________________________________________________
batch_normalization_228 (BatchN (None, 35, 35, 96)   288         conv2d_228[0][0]                 
__________________________________________________________________________________________________
batch_normalization_229 (BatchN (None, 35, 35, 64)   192         conv2d_229[0][0]                 
__________________________________________________________________________________________________
activation_223 (Activation)     (None, 35, 35, 64)   0           batch_normalization_223[0][0]    
__________________________________________________________________________________________________
activation_225 (Activation)     (None, 35, 35, 64)   0           batch_normalization_225[0][0]    
__________________________________________________________________________________________________
activation_228 (Activation)     (None, 35, 35, 96)   0           batch_normalization_228[0][0]    
__________________________________________________________________________________________________
activation_229 (Activation)     (None, 35, 35, 64)   0           batch_normalization_229[0][0]    
__________________________________________________________________________________________________
mixed2 (Concatenate)            (None, 35, 35, 288)  0           activation_223[0][0]             
                                                                 activation_225[0][0]             
                                                                 activation_228[0][0]             
                                                                 activation_229[0][0]             
__________________________________________________________________________________________________
conv2d_231 (Conv2D)             (None, 35, 35, 64)   18432       mixed2[0][0]                     
__________________________________________________________________________________________________
batch_normalization_231 (BatchN (None, 35, 35, 64)   192         conv2d_231[0][0]                 
__________________________________________________________________________________________________
activation_231 (Activation)     (None, 35, 35, 64)   0           batch_normalization_231[0][0]    
__________________________________________________________________________________________________
conv2d_232 (Conv2D)             (None, 35, 35, 96)   55296       activation_231[0][0]             
__________________________________________________________________________________________________
batch_normalization_232 (BatchN (None, 35, 35, 96)   288         conv2d_232[0][0]                 
__________________________________________________________________________________________________
activation_232 (Activation)     (None, 35, 35, 96)   0           batch_normalization_232[0][0]    
__________________________________________________________________________________________________
conv2d_230 (Conv2D)             (None, 17, 17, 384)  995328      mixed2[0][0]                     
__________________________________________________________________________________________________
conv2d_233 (Conv2D)             (None, 17, 17, 96)   82944       activation_232[0][0]             
__________________________________________________________________________________________________
batch_normalization_230 (BatchN (None, 17, 17, 384)  1152        conv2d_230[0][0]                 
__________________________________________________________________________________________________
batch_normalization_233 (BatchN (None, 17, 17, 96)   288         conv2d_233[0][0]                 
__________________________________________________________________________________________________
activation_230 (Activation)     (None, 17, 17, 384)  0           batch_normalization_230[0][0]    
__________________________________________________________________________________________________
activation_233 (Activation)     (None, 17, 17, 96)   0           batch_normalization_233[0][0]    
__________________________________________________________________________________________________
max_pooling2d_7 (MaxPooling2D)  (None, 17, 17, 288)  0           mixed2[0][0]                     
__________________________________________________________________________________________________
mixed3 (Concatenate)            (None, 17, 17, 768)  0           activation_230[0][0]             
                                                                 activation_233[0][0]             
                                                                 max_pooling2d_7[0][0]            
__________________________________________________________________________________________________
conv2d_238 (Conv2D)             (None, 17, 17, 128)  98304       mixed3[0][0]                     
__________________________________________________________________________________________________
batch_normalization_238 (BatchN (None, 17, 17, 128)  384         conv2d_238[0][0]                 
__________________________________________________________________________________________________
activation_238 (Activation)     (None, 17, 17, 128)  0           batch_normalization_238[0][0]    
__________________________________________________________________________________________________
conv2d_239 (Conv2D)             (None, 17, 17, 128)  114688      activation_238[0][0]             
__________________________________________________________________________________________________
batch_normalization_239 (BatchN (None, 17, 17, 128)  384         conv2d_239[0][0]                 
__________________________________________________________________________________________________
activation_239 (Activation)     (None, 17, 17, 128)  0           batch_normalization_239[0][0]    
__________________________________________________________________________________________________
conv2d_235 (Conv2D)             (None, 17, 17, 128)  98304       mixed3[0][0]                     
__________________________________________________________________________________________________
conv2d_240 (Conv2D)             (None, 17, 17, 128)  114688      activation_239[0][0]             
__________________________________________________________________________________________________
batch_normalization_235 (BatchN (None, 17, 17, 128)  384         conv2d_235[0][0]                 
__________________________________________________________________________________________________
batch_normalization_240 (BatchN (None, 17, 17, 128)  384         conv2d_240[0][0]                 
__________________________________________________________________________________________________
activation_235 (Activation)     (None, 17, 17, 128)  0           batch_normalization_235[0][0]    
__________________________________________________________________________________________________
activation_240 (Activation)     (None, 17, 17, 128)  0           batch_normalization_240[0][0]    
__________________________________________________________________________________________________
conv2d_236 (Conv2D)             (None, 17, 17, 128)  114688      activation_235[0][0]             
__________________________________________________________________________________________________
conv2d_241 (Conv2D)             (None, 17, 17, 128)  114688      activation_240[0][0]             
__________________________________________________________________________________________________
batch_normalization_236 (BatchN (None, 17, 17, 128)  384         conv2d_236[0][0]                 
__________________________________________________________________________________________________
batch_normalization_241 (BatchN (None, 17, 17, 128)  384         conv2d_241[0][0]                 
__________________________________________________________________________________________________
activation_236 (Activation)     (None, 17, 17, 128)  0           batch_normalization_236[0][0]    
__________________________________________________________________________________________________
activation_241 (Activation)     (None, 17, 17, 128)  0           batch_normalization_241[0][0]    
__________________________________________________________________________________________________
average_pooling2d_5 (AveragePoo (None, 17, 17, 768)  0           mixed3[0][0]                     
__________________________________________________________________________________________________
conv2d_234 (Conv2D)             (None, 17, 17, 192)  147456      mixed3[0][0]                     
__________________________________________________________________________________________________
conv2d_237 (Conv2D)             (None, 17, 17, 192)  172032      activation_236[0][0]             
__________________________________________________________________________________________________
conv2d_242 (Conv2D)             (None, 17, 17, 192)  172032      activation_241[0][0]             
__________________________________________________________________________________________________
conv2d_243 (Conv2D)             (None, 17, 17, 192)  147456      average_pooling2d_5[0][0]        
__________________________________________________________________________________________________
batch_normalization_234 (BatchN (None, 17, 17, 192)  576         conv2d_234[0][0]                 
__________________________________________________________________________________________________
batch_normalization_237 (BatchN (None, 17, 17, 192)  576         conv2d_237[0][0]                 
__________________________________________________________________________________________________
batch_normalization_242 (BatchN (None, 17, 17, 192)  576         conv2d_242[0][0]                 
__________________________________________________________________________________________________
batch_normalization_243 (BatchN (None, 17, 17, 192)  576         conv2d_243[0][0]                 
__________________________________________________________________________________________________
activation_234 (Activation)     (None, 17, 17, 192)  0           batch_normalization_234[0][0]    
__________________________________________________________________________________________________
activation_237 (Activation)     (None, 17, 17, 192)  0           batch_normalization_237[0][0]    
__________________________________________________________________________________________________
activation_242 (Activation)     (None, 17, 17, 192)  0           batch_normalization_242[0][0]    
__________________________________________________________________________________________________
activation_243 (Activation)     (None, 17, 17, 192)  0           batch_normalization_243[0][0]    
__________________________________________________________________________________________________
mixed4 (Concatenate)            (None, 17, 17, 768)  0           activation_234[0][0]             
                                                                 activation_237[0][0]             
                                                                 activation_242[0][0]             
                                                                 activation_243[0][0]             
__________________________________________________________________________________________________
conv2d_248 (Conv2D)             (None, 17, 17, 160)  122880      mixed4[0][0]                     
__________________________________________________________________________________________________
batch_normalization_248 (BatchN (None, 17, 17, 160)  480         conv2d_248[0][0]                 
__________________________________________________________________________________________________
activation_248 (Activation)     (None, 17, 17, 160)  0           batch_normalization_248[0][0]    
__________________________________________________________________________________________________
conv2d_249 (Conv2D)             (None, 17, 17, 160)  179200      activation_248[0][0]             
__________________________________________________________________________________________________
batch_normalization_249 (BatchN (None, 17, 17, 160)  480         conv2d_249[0][0]                 
__________________________________________________________________________________________________
activation_249 (Activation)     (None, 17, 17, 160)  0           batch_normalization_249[0][0]    
__________________________________________________________________________________________________
conv2d_245 (Conv2D)             (None, 17, 17, 160)  122880      mixed4[0][0]                     
__________________________________________________________________________________________________
conv2d_250 (Conv2D)             (None, 17, 17, 160)  179200      activation_249[0][0]             
__________________________________________________________________________________________________
batch_normalization_245 (BatchN (None, 17, 17, 160)  480         conv2d_245[0][0]                 
__________________________________________________________________________________________________
batch_normalization_250 (BatchN (None, 17, 17, 160)  480         conv2d_250[0][0]                 
__________________________________________________________________________________________________
activation_245 (Activation)     (None, 17, 17, 160)  0           batch_normalization_245[0][0]    
__________________________________________________________________________________________________
activation_250 (Activation)     (None, 17, 17, 160)  0           batch_normalization_250[0][0]    
__________________________________________________________________________________________________
conv2d_246 (Conv2D)             (None, 17, 17, 160)  179200      activation_245[0][0]             
__________________________________________________________________________________________________
conv2d_251 (Conv2D)             (None, 17, 17, 160)  179200      activation_250[0][0]             
__________________________________________________________________________________________________
batch_normalization_246 (BatchN (None, 17, 17, 160)  480         conv2d_246[0][0]                 
__________________________________________________________________________________________________
batch_normalization_251 (BatchN (None, 17, 17, 160)  480         conv2d_251[0][0]                 
__________________________________________________________________________________________________
activation_246 (Activation)     (None, 17, 17, 160)  0           batch_normalization_246[0][0]    
__________________________________________________________________________________________________
activation_251 (Activation)     (None, 17, 17, 160)  0           batch_normalization_251[0][0]    
__________________________________________________________________________________________________
average_pooling2d_6 (AveragePoo (None, 17, 17, 768)  0           mixed4[0][0]                     
__________________________________________________________________________________________________
conv2d_244 (Conv2D)             (None, 17, 17, 192)  147456      mixed4[0][0]                     
__________________________________________________________________________________________________
conv2d_247 (Conv2D)             (None, 17, 17, 192)  215040      activation_246[0][0]             
__________________________________________________________________________________________________
conv2d_252 (Conv2D)             (None, 17, 17, 192)  215040      activation_251[0][0]             
__________________________________________________________________________________________________
conv2d_253 (Conv2D)             (None, 17, 17, 192)  147456      average_pooling2d_6[0][0]        
__________________________________________________________________________________________________
batch_normalization_244 (BatchN (None, 17, 17, 192)  576         conv2d_244[0][0]                 
__________________________________________________________________________________________________
batch_normalization_247 (BatchN (None, 17, 17, 192)  576         conv2d_247[0][0]                 
__________________________________________________________________________________________________
batch_normalization_252 (BatchN (None, 17, 17, 192)  576         conv2d_252[0][0]                 
__________________________________________________________________________________________________
batch_normalization_253 (BatchN (None, 17, 17, 192)  576         conv2d_253[0][0]                 
__________________________________________________________________________________________________
activation_244 (Activation)     (None, 17, 17, 192)  0           batch_normalization_244[0][0]    
__________________________________________________________________________________________________
activation_247 (Activation)     (None, 17, 17, 192)  0           batch_normalization_247[0][0]    
__________________________________________________________________________________________________
activation_252 (Activation)     (None, 17, 17, 192)  0           batch_normalization_252[0][0]    
__________________________________________________________________________________________________
activation_253 (Activation)     (None, 17, 17, 192)  0           batch_normalization_253[0][0]    
__________________________________________________________________________________________________
mixed5 (Concatenate)            (None, 17, 17, 768)  0           activation_244[0][0]             
                                                                 activation_247[0][0]             
                                                                 activation_252[0][0]             
                                                                 activation_253[0][0]             
__________________________________________________________________________________________________
conv2d_258 (Conv2D)             (None, 17, 17, 160)  122880      mixed5[0][0]                     
__________________________________________________________________________________________________
batch_normalization_258 (BatchN (None, 17, 17, 160)  480         conv2d_258[0][0]                 
__________________________________________________________________________________________________
activation_258 (Activation)     (None, 17, 17, 160)  0           batch_normalization_258[0][0]    
__________________________________________________________________________________________________
conv2d_259 (Conv2D)             (None, 17, 17, 160)  179200      activation_258[0][0]             
__________________________________________________________________________________________________
batch_normalization_259 (BatchN (None, 17, 17, 160)  480         conv2d_259[0][0]                 
__________________________________________________________________________________________________
activation_259 (Activation)     (None, 17, 17, 160)  0           batch_normalization_259[0][0]    
__________________________________________________________________________________________________
conv2d_255 (Conv2D)             (None, 17, 17, 160)  122880      mixed5[0][0]                     
__________________________________________________________________________________________________
conv2d_260 (Conv2D)             (None, 17, 17, 160)  179200      activation_259[0][0]             
__________________________________________________________________________________________________
batch_normalization_255 (BatchN (None, 17, 17, 160)  480         conv2d_255[0][0]                 
__________________________________________________________________________________________________
batch_normalization_260 (BatchN (None, 17, 17, 160)  480         conv2d_260[0][0]                 
__________________________________________________________________________________________________
activation_255 (Activation)     (None, 17, 17, 160)  0           batch_normalization_255[0][0]    
__________________________________________________________________________________________________
activation_260 (Activation)     (None, 17, 17, 160)  0           batch_normalization_260[0][0]    
__________________________________________________________________________________________________
conv2d_256 (Conv2D)             (None, 17, 17, 160)  179200      activation_255[0][0]             
__________________________________________________________________________________________________
conv2d_261 (Conv2D)             (None, 17, 17, 160)  179200      activation_260[0][0]             
__________________________________________________________________________________________________
batch_normalization_256 (BatchN (None, 17, 17, 160)  480         conv2d_256[0][0]                 
__________________________________________________________________________________________________
batch_normalization_261 (BatchN (None, 17, 17, 160)  480         conv2d_261[0][0]                 
__________________________________________________________________________________________________
activation_256 (Activation)     (None, 17, 17, 160)  0           batch_normalization_256[0][0]    
__________________________________________________________________________________________________
activation_261 (Activation)     (None, 17, 17, 160)  0           batch_normalization_261[0][0]    
__________________________________________________________________________________________________
average_pooling2d_7 (AveragePoo (None, 17, 17, 768)  0           mixed5[0][0]                     
__________________________________________________________________________________________________
conv2d_254 (Conv2D)             (None, 17, 17, 192)  147456      mixed5[0][0]                     
__________________________________________________________________________________________________
conv2d_257 (Conv2D)             (None, 17, 17, 192)  215040      activation_256[0][0]             
__________________________________________________________________________________________________
conv2d_262 (Conv2D)             (None, 17, 17, 192)  215040      activation_261[0][0]             
__________________________________________________________________________________________________
conv2d_263 (Conv2D)             (None, 17, 17, 192)  147456      average_pooling2d_7[0][0]        
__________________________________________________________________________________________________
batch_normalization_254 (BatchN (None, 17, 17, 192)  576         conv2d_254[0][0]                 
__________________________________________________________________________________________________
batch_normalization_257 (BatchN (None, 17, 17, 192)  576         conv2d_257[0][0]                 
__________________________________________________________________________________________________
batch_normalization_262 (BatchN (None, 17, 17, 192)  576         conv2d_262[0][0]                 
__________________________________________________________________________________________________
batch_normalization_263 (BatchN (None, 17, 17, 192)  576         conv2d_263[0][0]                 
__________________________________________________________________________________________________
activation_254 (Activation)     (None, 17, 17, 192)  0           batch_normalization_254[0][0]    
__________________________________________________________________________________________________
activation_257 (Activation)     (None, 17, 17, 192)  0           batch_normalization_257[0][0]    
__________________________________________________________________________________________________
activation_262 (Activation)     (None, 17, 17, 192)  0           batch_normalization_262[0][0]    
__________________________________________________________________________________________________
activation_263 (Activation)     (None, 17, 17, 192)  0           batch_normalization_263[0][0]    
__________________________________________________________________________________________________
mixed6 (Concatenate)            (None, 17, 17, 768)  0           activation_254[0][0]             
                                                                 activation_257[0][0]             
                                                                 activation_262[0][0]             
                                                                 activation_263[0][0]             
__________________________________________________________________________________________________
conv2d_268 (Conv2D)             (None, 17, 17, 192)  147456      mixed6[0][0]                     
__________________________________________________________________________________________________
batch_normalization_268 (BatchN (None, 17, 17, 192)  576         conv2d_268[0][0]                 
__________________________________________________________________________________________________
activation_268 (Activation)     (None, 17, 17, 192)  0           batch_normalization_268[0][0]    
__________________________________________________________________________________________________
conv2d_269 (Conv2D)             (None, 17, 17, 192)  258048      activation_268[0][0]             
__________________________________________________________________________________________________
batch_normalization_269 (BatchN (None, 17, 17, 192)  576         conv2d_269[0][0]                 
__________________________________________________________________________________________________
activation_269 (Activation)     (None, 17, 17, 192)  0           batch_normalization_269[0][0]    
__________________________________________________________________________________________________
conv2d_265 (Conv2D)             (None, 17, 17, 192)  147456      mixed6[0][0]                     
__________________________________________________________________________________________________
conv2d_270 (Conv2D)             (None, 17, 17, 192)  258048      activation_269[0][0]             
__________________________________________________________________________________________________
batch_normalization_265 (BatchN (None, 17, 17, 192)  576         conv2d_265[0][0]                 
__________________________________________________________________________________________________
batch_normalization_270 (BatchN (None, 17, 17, 192)  576         conv2d_270[0][0]                 
__________________________________________________________________________________________________
activation_265 (Activation)     (None, 17, 17, 192)  0           batch_normalization_265[0][0]    
__________________________________________________________________________________________________
activation_270 (Activation)     (None, 17, 17, 192)  0           batch_normalization_270[0][0]    
__________________________________________________________________________________________________
conv2d_266 (Conv2D)             (None, 17, 17, 192)  258048      activation_265[0][0]             
__________________________________________________________________________________________________
conv2d_271 (Conv2D)             (None, 17, 17, 192)  258048      activation_270[0][0]             
__________________________________________________________________________________________________
batch_normalization_266 (BatchN (None, 17, 17, 192)  576         conv2d_266[0][0]                 
__________________________________________________________________________________________________
batch_normalization_271 (BatchN (None, 17, 17, 192)  576         conv2d_271[0][0]                 
__________________________________________________________________________________________________
activation_266 (Activation)     (None, 17, 17, 192)  0           batch_normalization_266[0][0]    
__________________________________________________________________________________________________
activation_271 (Activation)     (None, 17, 17, 192)  0           batch_normalization_271[0][0]    
__________________________________________________________________________________________________
average_pooling2d_8 (AveragePoo (None, 17, 17, 768)  0           mixed6[0][0]                     
__________________________________________________________________________________________________
conv2d_264 (Conv2D)             (None, 17, 17, 192)  147456      mixed6[0][0]                     
__________________________________________________________________________________________________
conv2d_267 (Conv2D)             (None, 17, 17, 192)  258048      activation_266[0][0]             
__________________________________________________________________________________________________
conv2d_272 (Conv2D)             (None, 17, 17, 192)  258048      activation_271[0][0]             
__________________________________________________________________________________________________
conv2d_273 (Conv2D)             (None, 17, 17, 192)  147456      average_pooling2d_8[0][0]        
__________________________________________________________________________________________________
batch_normalization_264 (BatchN (None, 17, 17, 192)  576         conv2d_264[0][0]                 
__________________________________________________________________________________________________
batch_normalization_267 (BatchN (None, 17, 17, 192)  576         conv2d_267[0][0]                 
__________________________________________________________________________________________________
batch_normalization_272 (BatchN (None, 17, 17, 192)  576         conv2d_272[0][0]                 
__________________________________________________________________________________________________
batch_normalization_273 (BatchN (None, 17, 17, 192)  576         conv2d_273[0][0]                 
__________________________________________________________________________________________________
activation_264 (Activation)     (None, 17, 17, 192)  0           batch_normalization_264[0][0]    
__________________________________________________________________________________________________
activation_267 (Activation)     (None, 17, 17, 192)  0           batch_normalization_267[0][0]    
__________________________________________________________________________________________________
activation_272 (Activation)     (None, 17, 17, 192)  0           batch_normalization_272[0][0]    
__________________________________________________________________________________________________
activation_273 (Activation)     (None, 17, 17, 192)  0           batch_normalization_273[0][0]    
__________________________________________________________________________________________________
mixed7 (Concatenate)            (None, 17, 17, 768)  0           activation_264[0][0]             
                                                                 activation_267[0][0]             
                                                                 activation_272[0][0]             
                                                                 activation_273[0][0]             
__________________________________________________________________________________________________
conv2d_276 (Conv2D)             (None, 17, 17, 192)  147456      mixed7[0][0]                     
__________________________________________________________________________________________________
batch_normalization_276 (BatchN (None, 17, 17, 192)  576         conv2d_276[0][0]                 
__________________________________________________________________________________________________
activation_276 (Activation)     (None, 17, 17, 192)  0           batch_normalization_276[0][0]    
__________________________________________________________________________________________________
conv2d_277 (Conv2D)             (None, 17, 17, 192)  258048      activation_276[0][0]             
__________________________________________________________________________________________________
batch_normalization_277 (BatchN (None, 17, 17, 192)  576         conv2d_277[0][0]                 
__________________________________________________________________________________________________
activation_277 (Activation)     (None, 17, 17, 192)  0           batch_normalization_277[0][0]    
__________________________________________________________________________________________________
conv2d_274 (Conv2D)             (None, 17, 17, 192)  147456      mixed7[0][0]                     
__________________________________________________________________________________________________
conv2d_278 (Conv2D)             (None, 17, 17, 192)  258048      activation_277[0][0]             
__________________________________________________________________________________________________
batch_normalization_274 (BatchN (None, 17, 17, 192)  576         conv2d_274[0][0]                 
__________________________________________________________________________________________________
batch_normalization_278 (BatchN (None, 17, 17, 192)  576         conv2d_278[0][0]                 
__________________________________________________________________________________________________
activation_274 (Activation)     (None, 17, 17, 192)  0           batch_normalization_274[0][0]    
__________________________________________________________________________________________________
activation_278 (Activation)     (None, 17, 17, 192)  0           batch_normalization_278[0][0]    
__________________________________________________________________________________________________
conv2d_275 (Conv2D)             (None, 8, 8, 320)    552960      activation_274[0][0]             
__________________________________________________________________________________________________
conv2d_279 (Conv2D)             (None, 8, 8, 192)    331776      activation_278[0][0]             
__________________________________________________________________________________________________
batch_normalization_275 (BatchN (None, 8, 8, 320)    960         conv2d_275[0][0]                 
__________________________________________________________________________________________________
batch_normalization_279 (BatchN (None, 8, 8, 192)    576         conv2d_279[0][0]                 
__________________________________________________________________________________________________
activation_275 (Activation)     (None, 8, 8, 320)    0           batch_normalization_275[0][0]    
__________________________________________________________________________________________________
activation_279 (Activation)     (None, 8, 8, 192)    0           batch_normalization_279[0][0]    
__________________________________________________________________________________________________
max_pooling2d_8 (MaxPooling2D)  (None, 8, 8, 768)    0           mixed7[0][0]                     
__________________________________________________________________________________________________
mixed8 (Concatenate)            (None, 8, 8, 1280)   0           activation_275[0][0]             
                                                                 activation_279[0][0]             
                                                                 max_pooling2d_8[0][0]            
__________________________________________________________________________________________________
conv2d_284 (Conv2D)             (None, 8, 8, 448)    573440      mixed8[0][0]                     
__________________________________________________________________________________________________
batch_normalization_284 (BatchN (None, 8, 8, 448)    1344        conv2d_284[0][0]                 
__________________________________________________________________________________________________
activation_284 (Activation)     (None, 8, 8, 448)    0           batch_normalization_284[0][0]    
__________________________________________________________________________________________________
conv2d_281 (Conv2D)             (None, 8, 8, 384)    491520      mixed8[0][0]                     
__________________________________________________________________________________________________
conv2d_285 (Conv2D)             (None, 8, 8, 384)    1548288     activation_284[0][0]             
__________________________________________________________________________________________________
batch_normalization_281 (BatchN (None, 8, 8, 384)    1152        conv2d_281[0][0]                 
__________________________________________________________________________________________________
batch_normalization_285 (BatchN (None, 8, 8, 384)    1152        conv2d_285[0][0]                 
__________________________________________________________________________________________________
activation_281 (Activation)     (None, 8, 8, 384)    0           batch_normalization_281[0][0]    
__________________________________________________________________________________________________
activation_285 (Activation)     (None, 8, 8, 384)    0           batch_normalization_285[0][0]    
__________________________________________________________________________________________________
conv2d_282 (Conv2D)             (None, 8, 8, 384)    442368      activation_281[0][0]             
__________________________________________________________________________________________________
conv2d_283 (Conv2D)             (None, 8, 8, 384)    442368      activation_281[0][0]             
__________________________________________________________________________________________________
conv2d_286 (Conv2D)             (None, 8, 8, 384)    442368      activation_285[0][0]             
__________________________________________________________________________________________________
conv2d_287 (Conv2D)             (None, 8, 8, 384)    442368      activation_285[0][0]             
__________________________________________________________________________________________________
average_pooling2d_9 (AveragePoo (None, 8, 8, 1280)   0           mixed8[0][0]                     
__________________________________________________________________________________________________
conv2d_280 (Conv2D)             (None, 8, 8, 320)    409600      mixed8[0][0]                     
__________________________________________________________________________________________________
batch_normalization_282 (BatchN (None, 8, 8, 384)    1152        conv2d_282[0][0]                 
__________________________________________________________________________________________________
batch_normalization_283 (BatchN (None, 8, 8, 384)    1152        conv2d_283[0][0]                 
__________________________________________________________________________________________________
batch_normalization_286 (BatchN (None, 8, 8, 384)    1152        conv2d_286[0][0]                 
__________________________________________________________________________________________________
batch_normalization_287 (BatchN (None, 8, 8, 384)    1152        conv2d_287[0][0]                 
__________________________________________________________________________________________________
conv2d_288 (Conv2D)             (None, 8, 8, 192)    245760      average_pooling2d_9[0][0]        
__________________________________________________________________________________________________
batch_normalization_280 (BatchN (None, 8, 8, 320)    960         conv2d_280[0][0]                 
__________________________________________________________________________________________________
activation_282 (Activation)     (None, 8, 8, 384)    0           batch_normalization_282[0][0]    
__________________________________________________________________________________________________
activation_283 (Activation)     (None, 8, 8, 384)    0           batch_normalization_283[0][0]    
__________________________________________________________________________________________________
activation_286 (Activation)     (None, 8, 8, 384)    0           batch_normalization_286[0][0]    
__________________________________________________________________________________________________
activation_287 (Activation)     (None, 8, 8, 384)    0           batch_normalization_287[0][0]    
__________________________________________________________________________________________________
batch_normalization_288 (BatchN (None, 8, 8, 192)    576         conv2d_288[0][0]                 
__________________________________________________________________________________________________
activation_280 (Activation)     (None, 8, 8, 320)    0           batch_normalization_280[0][0]    
__________________________________________________________________________________________________
mixed9_0 (Concatenate)          (None, 8, 8, 768)    0           activation_282[0][0]             
                                                                 activation_283[0][0]             
__________________________________________________________________________________________________
concatenate_2 (Concatenate)     (None, 8, 8, 768)    0           activation_286[0][0]             
                                                                 activation_287[0][0]             
__________________________________________________________________________________________________
activation_288 (Activation)     (None, 8, 8, 192)    0           batch_normalization_288[0][0]    
__________________________________________________________________________________________________
mixed9 (Concatenate)            (None, 8, 8, 2048)   0           activation_280[0][0]             
                                                                 mixed9_0[0][0]                   
                                                                 concatenate_2[0][0]              
                                                                 activation_288[0][0]             
__________________________________________________________________________________________________
conv2d_293 (Conv2D)             (None, 8, 8, 448)    917504      mixed9[0][0]                     
__________________________________________________________________________________________________
batch_normalization_293 (BatchN (None, 8, 8, 448)    1344        conv2d_293[0][0]                 
__________________________________________________________________________________________________
activation_293 (Activation)     (None, 8, 8, 448)    0           batch_normalization_293[0][0]    
__________________________________________________________________________________________________
conv2d_290 (Conv2D)             (None, 8, 8, 384)    786432      mixed9[0][0]                     
__________________________________________________________________________________________________
conv2d_294 (Conv2D)             (None, 8, 8, 384)    1548288     activation_293[0][0]             
__________________________________________________________________________________________________
batch_normalization_290 (BatchN (None, 8, 8, 384)    1152        conv2d_290[0][0]                 
__________________________________________________________________________________________________
batch_normalization_294 (BatchN (None, 8, 8, 384)    1152        conv2d_294[0][0]                 
__________________________________________________________________________________________________
activation_290 (Activation)     (None, 8, 8, 384)    0           batch_normalization_290[0][0]    
__________________________________________________________________________________________________
activation_294 (Activation)     (None, 8, 8, 384)    0           batch_normalization_294[0][0]    
__________________________________________________________________________________________________
conv2d_291 (Conv2D)             (None, 8, 8, 384)    442368      activation_290[0][0]             
__________________________________________________________________________________________________
conv2d_292 (Conv2D)             (None, 8, 8, 384)    442368      activation_290[0][0]             
__________________________________________________________________________________________________
conv2d_295 (Conv2D)             (None, 8, 8, 384)    442368      activation_294[0][0]             
__________________________________________________________________________________________________
conv2d_296 (Conv2D)             (None, 8, 8, 384)    442368      activation_294[0][0]             
__________________________________________________________________________________________________
average_pooling2d_10 (AveragePo (None, 8, 8, 2048)   0           mixed9[0][0]                     
__________________________________________________________________________________________________
conv2d_289 (Conv2D)             (None, 8, 8, 320)    655360      mixed9[0][0]                     
__________________________________________________________________________________________________
batch_normalization_291 (BatchN (None, 8, 8, 384)    1152        conv2d_291[0][0]                 
__________________________________________________________________________________________________
batch_normalization_292 (BatchN (None, 8, 8, 384)    1152        conv2d_292[0][0]                 
__________________________________________________________________________________________________
batch_normalization_295 (BatchN (None, 8, 8, 384)    1152        conv2d_295[0][0]                 
__________________________________________________________________________________________________
batch_normalization_296 (BatchN (None, 8, 8, 384)    1152        conv2d_296[0][0]                 
__________________________________________________________________________________________________
conv2d_297 (Conv2D)             (None, 8, 8, 192)    393216      average_pooling2d_10[0][0]       
__________________________________________________________________________________________________
batch_normalization_289 (BatchN (None, 8, 8, 320)    960         conv2d_289[0][0]                 
__________________________________________________________________________________________________
activation_291 (Activation)     (None, 8, 8, 384)    0           batch_normalization_291[0][0]    
__________________________________________________________________________________________________
activation_292 (Activation)     (None, 8, 8, 384)    0           batch_normalization_292[0][0]    
__________________________________________________________________________________________________
activation_295 (Activation)     (None, 8, 8, 384)    0           batch_normalization_295[0][0]    
__________________________________________________________________________________________________
activation_296 (Activation)     (None, 8, 8, 384)    0           batch_normalization_296[0][0]    
__________________________________________________________________________________________________
batch_normalization_297 (BatchN (None, 8, 8, 192)    576         conv2d_297[0][0]                 
__________________________________________________________________________________________________
activation_289 (Activation)     (None, 8, 8, 320)    0           batch_normalization_289[0][0]    
__________________________________________________________________________________________________
mixed9_1 (Concatenate)          (None, 8, 8, 768)    0           activation_291[0][0]             
                                                                 activation_292[0][0]             
__________________________________________________________________________________________________
concatenate_3 (Concatenate)     (None, 8, 8, 768)    0           activation_295[0][0]             
                                                                 activation_296[0][0]             
__________________________________________________________________________________________________
activation_297 (Activation)     (None, 8, 8, 192)    0           batch_normalization_297[0][0]    
__________________________________________________________________________________________________
mixed10 (Concatenate)           (None, 8, 8, 2048)   0           activation_289[0][0]             
                                                                 mixed9_1[0][0]                   
                                                                 concatenate_3[0][0]              
                                                                 activation_297[0][0]             
__________________________________________________________________________________________________
global_average_pooling2d_2 (Glo (None, 2048)         0           mixed10[0][0]                    
__________________________________________________________________________________________________
dropout_3 (Dropout)             (None, 2048)         0           global_average_pooling2d_2[0][0] 
__________________________________________________________________________________________________
dense_3 (Dense)                 (None, 100)          204900      dropout_3[0][0]                  
__________________________________________________________________________________________________
dropout_4 (Dropout)             (None, 100)          0           dense_3[0][0]                    
__________________________________________________________________________________________________
dense_4 (Dense)                 (None, 1)            101         dropout_4[0][0]                  
__________________________________________________________________________________________________
any_predictions (Activation)    (None, 1)            0           dense_4[0][0]                    
__________________________________________________________________________________________________
concatenate_4 (Concatenate)     (None, 101)          0           any_predictions[0][0]            
                                                                 dropout_4[0][0]                  
__________________________________________________________________________________________________
subtype_pred (Dense)            (None, 5)            510         concatenate_4[0][0]              
==================================================================================================
Total params: 22,008,295
Trainable params: 21,973,863
Non-trainable params: 34,432
__________________________________________________________________________________________________
